series/ai-ml/w1-understanding-ppo/scripts/demo/outputs/models/best_model.pth (torch, 76919 bytes, 7 tensors)

shared.0.weight f4 [128, 8]
00000000: 4da8 053d 5c46 513f 42d5 6dbe 4795 47be
00000010: d927 50be deb8 e1bd 5c39 84bd efdb 193e
00000020: f08e 433f 556d 8ebf ae74 1a3f 6ef1 333e
00000030: 616f c03e 71b4 8cbe 9059 ef3d ea9b 733e
00000040: 195e d4be 3c8e 3cbe 2f3c d7bc d892 31bf
00000050: 4f0d 6d3f 926c b93e 5dfb 57be ee79 803d
00000060: 9e45 1cbe 0f44 f23e 7d5b 14bf 8a2a b93d
00000070: a221 7d3f 4dec cf3e 2884 2ebe eccd 953d
00000080: b041 723e bda0 9d3e 5796 9b3e 2312 3c3f
00000090: 0be2 0fbf c0a0 e5be 661e 053e 2e36 3b3e
000000a0: cc39 263f 9e08 24be f258 70bd bb55 babe
000000b0: bb9f 35bf c60d 4ebf 9c8f 043e 7903 233e
000000c0: 354e 81be baf5 6dbf 950e 3ebe 9453 1cbf
000000d0: 56f8 6e3e 9a03 d6be 14a4 5838 238c 7abd
000000e0: 5eec e33e de05 9c3f 985a 39bf b3cf 1a3f
000000f0: 73d5 a33e 8cfb a9be 56d6 d2bd ed59 023e
00000100: 2e07 81bf 06f5 5fbd 6efb 61be 1366 28bd
00000110: ce51 ff3e 2069 d13e 3d7f 3bbd ff1a 67bd
00000120: 24f5 213f 5282 8bbe 9d0e e73e 46c3 99be
00000130: 2187 3cbf a849 bcbe ae9a c6bd d575 873d
00000140: 1e9a 423f 2aae 873f 2979 313e 9b8c 243f
00000150: e521 b5bc 6de2 563d 1af4 07be ff31 733d
00000160: 93a6 adbe 2ff2 2b3e 577b c6be 1b0f 2d3f
00000170: b4d3 b3be 09ed 6b3f 74f5 bc3e b307 613d
00000180: 5009 a73f bf58 35bd ad91 2cba 7799 463f
00000190: 1724 0d3f 898f 14bf 4db1 8dbb 6b72 cebc
000001a0: f23f 57bf 2b1b 33be 1927 6fbd 3394 60bf
000001b0: 9f53 023f 6c4a 2abc b0db 82be 3baa 353d
000001c0: 344b 8a3f 35bd fa3e 70fd 443e a6b4 983e
000001d0: e306 cdbe 3e14 923c 0c05 923d 2a02 c7bd
000001e0: da0d 103e faec 223e fa29 c5be 363c c43e
000001f0: cd58 cfbd b3db acbd f41c 17be 1e5d 953c
00000200: 260a ac3f 9571 d03e ad6a a6be 115d 853e
00000210: 94e8 61bd 5432 523f 6b99 41be a03d 153e
00000220: 9e20 2b3f 08e3 be3e 249c 523d 11a8 b43e
00000230: 2a27 25bf d135 06bf 9fce 59be 384b 79be
00000240: 2a97 18bf 417b d1be 3452 2abf 6662 26bf
00000250: 6fb2 a4bf 4f9e 1e3f fcd7 5c3e 8f4a ebbd
00000260: 7267 1fbd 8245 fdbd 23e9 0b3f c51d cc3e
00000270: 66f5 b63d aac7 0a3f 11de 063e e718 213e
00000280: 5a93 2f3f 25c1 cb3b 37ee bd3d 0b2e 10be
00000290: bce5 42be c469 5bbf 0ac2 aebe d656 08be
000002a0: 7c30 0dbf 272b 063f 1a1a 59bc 639d 48be
000002b0: 36b4 9c3c 9899 bfbd a778 b5be 3b3b 2fbe
000002c0: 0596 8dbf 8d03 3dbb bb52 35bd ad07 483e
000002d0: a06a c13e a8f4 833d f7ea 8b3d ad07 033d
000002e0: 9c91 893f ec02 51bf 34c3 543f 1923 b3be
000002f0: 6d1b b4be d56b d73d 4b81 653d d590 c53d
00000300: f3bd b93d 0af2 7ebe 4765 cbbe 5930 7a3e
00000310: 4bb3 99bd c790 b03e 0834 0d3e 08c2 2a3e
00000320: cbd5 a33f b73f 813f 3882 fabc bd51 b83e
00000330: 7dae c33c 417c 753d 612d bebc eecd 36be
00000340: a902 81bf 9c52 d6be d5b3 c5bd 06f2 8abe
00000350: 07c9 6b3f 1a61 6dbe 4223 5d3e 22f7 4abe
00000360: 67b1 153f ac94 fd3d b02c 273f 238c 663f
00000370: b44a 09be 5171 1dbe 784a 4c3c 1901 32bd
00000380: 21cf ed3d 733e 29bf b5dc 24bd 96e6 0bbe
00000390: 3013 523e dbcb 8bbd 6696 51bd 60f4 b33d
000003a0: 3b43 acbe 1714 87bf 4784 8ebe 4b62 653d
000003b0: 4202 363f 519b 043f a002 933d 5055 413e
000003c0: 599a 433f 03d5 e73e 8288 9bbe 533f 2dbe
000003d0: 2163 0ebf f38c 413f 245f 06bd 83f8 1c3e
000003e0: e0ed f63e 1d16 bcbd 501e 6cbf 97e1 af3a
000003f0: 3ea7 413f 6731 4abe d614 543e 6dc8 813e
0.032631207 0.81747985 -0.23225883 -0.19490539 -0.203277 -0.11021589 -0.06456253 0.15025304
0.7638998 -1.1127115 0.6033429 0.17572567 0.37584975 -0.27481416 0.116870046 0.23789945
-0.4147804 -0.18413633 -0.026273815 -0.6936469 0.9259843 0.36215645 -0.21091981 0.06273256
-0.15260932 0.4731755 -0.579521 0.09041317 0.98879445 0.4060997 -0.17042601 0.07314667
0.2365787 0.30786696 0.30388138 0.73465174 -0.5620429 -0.44849205 0.12999877 0.18282387
0.6493194 -0.16018912 -0.058678575 -0.36393532 -0.70946854 -0.80489767 0.12945408 0.15919293
-0.2525498 -0.92953074 -0.1856025 -0.6106503 0.2333692 -0.41799623 5.1651223e-05 -0.0611688
0.4451627 1.218929 -0.7240386 0.60473174 0.31998786 -0.33199728 -0.102947876 0.12729616
-1.0080316 -0.054677032 -0.22068569 -0.04111297 0.498671 0.40900517 -0.04577564 -0.05642223
0.6326468 -0.27247864 0.45128337 -0.30031794 -0.7364369 -0.36774945 -0.096974716 0.066142716
0.76016414 1.0600026 0.17331375 0.64277047 -0.022110889 0.05246203 -0.13276711 0.059373852
-0.3391615 0.16791604 -0.38765976 0.67601174 -0.35122454 0.9215856 0.36906016 0.054938983
1.3049717 -0.044274088 -0.00065829867 0.7757792 0.55133194 -0.5803152 -0.0043241144 -0.025201043
-0.8408195 -0.17490833 -0.058386896 -0.87726134 0.50908846 -0.01039372 -0.25558233 0.044351798
1.08042 0.48972479 0.19237304 0.29825324 -0.40044317 0.017831918 0.07129869 -0.0971721
0.14067784 0.15910712 -0.38508588 0.38327187 -0.10124359 -0.08440342 -0.14757138 0.018232878
1.3440597 0.40711656 -0.32503262 0.26047567 -0.055153444 0.82108045 -0.1890618 0.1457429
0.66846645 0.37282586 0.05141844 0.35284474 -0.64512885 -0.5242587 -0.21270226 -0.243451
-0.5960566 -0.40914348 -0.6653168 -0.64993894 -1.2866954 0.6196031 0.21566767 -0.1148883
-0.038917013 -0.12366773 0.54652613 0.39866462 0.08933525 0.54210913 0.13170649 0.15732156
0.68584216 0.006218093 0.092739515 -0.14080064 -0.19032949 -0.8570826 -0.34132415 -0.13314375
-0.55152106 0.52409595 -0.013250852 -0.19591288 0.0191289 -0.093554676 -0.35443613 -0.17112438
-1.1061407 -0.0028841228 -0.04426835 0.19534178 0.3777666 0.06443149 0.06831925 0.031989742
1.0747561 -0.81645083 0.83110356 -0.34987715 -0.35177174 0.10518614 0.056031507 0.09646765
0.09069433 -0.24897018 -0.39725706 0.24432506 -0.075049005 0.34485456 0.1378938 0.1667558
1.279962 1.0097569 -0.030579671 0.3599986 0.023886913 0.05993295 -0.023214998 -0.17851993
-1.0078937 -0.418599 -0.09653441 -0.27137774 0.9210362 -0.23181573 0.21595481 -0.19820836
0.5847382 0.123818725 0.6530256 0.9005758 -0.13407403 -0.15375258 0.012468927 -0.043458078
0.11611772 -0.66110915 -0.040249545 -0.1366218 0.20515132 -0.06825992 -0.05116882 0.08786845
-0.33645043 -1.0553006 -0.27835295 0.056001943 0.71097195 0.51799494 0.07178235 0.188802
0.7640739 0.45279703 -0.30377585 -0.16918688 -0.5562001 0.75605696 -0.032805577 0.15329175
0.4822836 -0.09183905 -0.92233753 0.0013418671 0.75645816 -0.19745408 0.20711073 0.25348225

shared.0.bias f4 [128]
00000000: 23f5 e7be ffa3 12be 95af afbe 6248 253d
00000010: 2ee7 a4bd c232 6d3b e25b a8be 3d84 da3e
00000020: 9af0 c73e cccc e1be 845b f33e c905 143e
00000030: 6020 a53e 4c98 abbe 2605 c93c 3ea2 3b3f
00000040: 88bd 29bd 9d4c 78be bbd5 c0bd 2922 773c
00000050: 8762 e33d 05a0 c1be a376 ffbd 1339 f4be
00000060: c4b9 143f fe3a 83bc 46c1 bd3d 7b4f 043f
00000070: fbf9 213e d3a0 19be f5f5 68be 5382 0b3f
00000080: ea0b f5bd f40d 09bf 5af3 e9be 223b fbbc
00000090: 862c 9e3e 7c53 263e 4a91 ddbe 2265 bc3e
000000a0: a192 15bd 60f9 4cbc 4a37 523e 5dc0 abbe
000000b0: 2a0b 05bf 0a54 f03d 1c5e 83bc 0a18 253e
000000c0: daff 013f 241e ca3e 67b5 1a3f b116 e13e
000000d0: e8ed f73e d6d1 1abe 42dd 11bd c502 703e
000000e0: 6acf d4be 1a66 b03e 9125 1f3e 8c28 09bf
000000f0: f656 b5bc 73d9 9bbe 485f fe3e f168 57be
00000100: 4bd2 36be 6ec1 1fbe b516 ecbe c6ea 5c3d
00000110: 3ce4 8cbe a6b6 0abf 38a2 1d3f fd11 dcbe
00000120: 85f4 663d 3b04 4bbe 7f11 9fbe 7b0a 89bd
00000130: 7fee de3e 4b26 5bbe e9cf 7b3c f108 d0be
00000140: 7d08 99bd 8407 203e b889 ba3c d116 bebe
00000150: 520f ffbd 503a acbc 0a42 a0be 3a2c 26bf
00000160: 8895 e5be 5d73 8abe a5ac 8d3e a283 a73e
00000170: e23b 073e 8eba 3abe 3f2a f83d bcc8 a63e
00000180: cf7b 473e fc2a 76bd 9224 d9bd f8b9 abbe
00000190: 88db 69be 56d8 7ebe b09d 1e3f 7acd 9b3e
000001a0: f26f 983e b49d 983d b8d4 20bf cfad 47be
000001b0: 8746 2c3d 3df2 b9bd 9378 b9be 4ae3 00bf
000001c0: aa7b 87be 1964 003f 8b2f c43e 4e37 313e
000001d0: 9d42 1cbf a940 35bc 9ed5 dcbe f71f cb3d
000001e0: 2888 2ebe dc6e a2be ea11 d33e c323 553e
000001f0: 0a28 af3d 1c07 c5be ca83 8cbe 0108 23bf
-0.45304212 -0.14320372 -0.34313646 0.040352233 -0.080519065 0.0036193584 -0.328826 0.42679015
0.39050752 -0.4410156 0.47530758 0.14455332 0.32251263 -0.3351463 0.024538588 0.73294437
-0.041440517 -0.24247976 -0.09415766 0.015083828 0.11102777 -0.37817398 -0.124738 -0.47699794
0.58095956 -0.01601934 0.092653796 0.5168378 0.15818016 -0.15002756 -0.22750075 0.54495734
-0.11965163 -0.53536916 -0.45693475 -0.030667845 0.30893344 0.16242784 -0.4327491 0.36795908
-0.03651679 -0.0125106275 0.20528904 -0.335452 -0.5197016 0.11734779 -0.016036086 0.16122451
0.50781024 0.3947612 0.6043305 0.43962625 0.48423696 -0.15119109 -0.0356114 0.23438556
-0.41564494 0.34452897 0.15541674 -0.53577495 -0.022136193 -0.30439338 0.4968207 -0.21036126
-0.17853658 -0.15601131 -0.46111074 0.053934835 -0.2751788 -0.5418495 0.6157565 -0.42982474
0.056385536 -0.19825833 -0.31068036 -0.06691452 0.43541333 -0.21401326 0.015369394 -0.40631822
-0.07472322 0.15627867 0.022770748 -0.37126783 -0.12454094 -0.0210239 -0.31300384 -0.64911234
-0.44840646 -0.2704114 0.2767078 0.32717615 0.13206437 -0.18235227 0.12117433 0.32575023
0.19480823 -0.060099587 -0.10602678 -0.3354032 -0.22837651 -0.24887213 0.6195936 0.30430204
0.29772907 0.074519545 -0.62824583 -0.19499896 0.042059448 -0.090794064 -0.36224803 -0.50346816
-0.26461536 0.50152737 0.38317522 0.17306253 -0.61039144 -0.011062779 -0.43131727 0.09918206
-0.17044127 -0.31725204 0.41224605 0.20814423 0.08552559 -0.38481987 -0.27444297 -0.6368409

shared.2.weight f4 [128, 128]
00000000: 72e2 36bf 20c9 f4bd 4fb9 c8be 436d 7bbe
00000010: 6209 043f d074 513e c0c7 5ebe a04b f13c
00000020: 4dc4 dfbd 3497 b03e dc4d a23e 4416 eabc
00000030: e449 673e d45e a1bc b520 b9be 7b1f 283e
00000040: 7789 3abd 24a4 973e 58b1 e2bb ff3a dd3d
00000050: c334 243e 18e4 1dbf add3 5f3e d9ad 0fbe
00000060: 75d3 173f 3958 0dbe d384 613d 6b34 3d3e
00000070: 1546 813e b1bd 18bd 9db2 a1be a379 673e
00000080: 7c61 a7bb 91dd d53c 3d62 17bf 3ba0 64be
00000090: f4ba ef3d cdc4 27be f739 fdbd 6d9f d93d
000000a0: 50d8 263e 53a8 0f3f adb7 57bc ddb5 61bf
000000b0: 9bf3 4dbe d3d7 033f 60d6 57bc 0556 0abc
000000c0: fccb a73e 115c 173f 9019 bf3e 2f1a 943e
000000d0: 8b0e 2b3d 3685 233e 37ce 06be 6a8a 1c3f
000000e0: 9349 b6be 57d9 393d 9862 3d3e 05b9 42be
000000f0: 8fdc 18bf 81f0 1f3e 3492 e9be 6c3a 57be
00000100: c68b 2fbf b5e4 13bf f494 b9be 5b94 fdbe
00000110: 1586 563e 7447 c1be aedd 443e fd2b 17bd
00000120: fd8d c33e 4107 90be 7635 b33d baeb aa3e
00000130: 4d86 be3e bfc2 aabd 4c6f 933d 8a64 6f3e
00000140: 452e d43e 5a25 8e3d 242a b0be 1e70 d4bc
00000150: 5fdc 0dbf 8c49 0f3e 4642 86be a85a 743e
00000160: 65d0 84be 4ae6 19bf 96c5 fd3e 841b 943d
00000170: 6433 453d 2749 94be 93b4 173e 09ee 133f
00000180: 330a 9ebe 774e 4a3e 7b42 ebbd dedb 53be
00000190: 6457 56be a4d4 82be ce49 6f3e 9c7a dbbc
000001a0: 354a 4f3e e537 6bbe 9481 2cbe 0ac0 38bd
000001b0: 6ac7 1abe badb bfbe a175 b8bd fcd6 4fbe
000001c0: 96f8 843e 65f1 3d3e 0a22 383f 4ec0 5b3e
000001d0: 4002 70be 562b 37be 7efa 5c3e 5a9e 053f
000001e0: 3935 d0be a7e1 f33d 8e2e 13bd 82d8 843e
000001f0: 1448 3fbe 02f6 0bbf 65b5 bbbe a1dd f7be
00000200: 1ce8 9dbe 056e 033f a68d 2cbf ec9c 58bf
00000210: 037e 003e 80cc 463f d489 313f 8be3 aabe
00000220: a6f5 3fbe 705a 843e be4b a3be 1a53 cdbe
00000230: 9f4e 443e 735c 47be cbdf 8abd 30de c53d
00000240: c35a b0be 28f3 4f3e 66da 0cbd 9cd0 b9be
00000250: 3fb8 ee3e cc5a ccbe 5dc8 a0be f9f6 7dbc
00000260: 3434 e73d 100c d5be ef0c b43e 523b 513c
00000270: 29b6 2e3f 535e 443e de02 3abf f645 9d3d
00000280: c939 4dbf a7ba 343e 410f debd 5ce2 03bf
00000290: d385 c6be b1ef d9be f78f ae3e 382d 75be
000002a0: 287b 5fbe f7ed 073f 828b 66bf 4410 74bd
000002b0: 3adc 823e f393 c63e 1cd2 00bf 044c c8bb
000002c0: a133 3e3e aedd 613e 5e73 c2bd b857 3a3d
000002d0: 0965 143e 9b1f 6c3e 4d6e 05bd 1ef5 b43e
000002e0: c11b 283e f632 3a3e 07e3 62be 8b36 26be
000002f0: bf60 6f3b aa54 cabc 85f9 50be 2ef4 513f
00000300: 71b2 1bbf ef6b 8fbe 3237 b7bd ab33 8ebf
00000310: 1881 bc3e a3a9 42be e6d6 16be 9d71 d73c
00000320: 0237 203d aa86 47bd a2d3 a43e bce0 583e
00000330: abaf 173f 005f 97be 62a9 26bf e463 623e
00000340: 9351 83be f6bd 073f 37ca 8b3d 7202 c7bd
00000350: 9d08 f9be 8f7e 38bf 4809 ecbe ced4 c83e
00000360: aaba 903d 21a2 09bf c290 053f f5ae adbe
00000370: 7005 55bf eca6 7f3d 3157 87bc fc1a 023e
00000380: 5e69 0ebf 57c0 f03e 3faa 893d f1cb c8be
00000390: cea8 bbbd d380 d4bd 017b f3bd 2321 43be
000003a0: bb08 09bf 9889 33bf d3c2 9c3d 99ab 1ebe
000003b0: b7c3 9bbe f53a 653e b1fe 83be b41f 473d
000003c0: 67a5 a13e 7ca8 99bc f3ab ef3d c4d3 2ebd
000003d0: 5ef2 e03d 1cc1 9abe d9d0 28be 5179 15bf
000003e0: f015 7ebe b0a7 68be 3a2b 153e beff 743e
000003f0: 888b 41be 1723 49bd 15fc 9e3e 1720 993c
-0.7143928 -0.11952424 -0.3920388 -0.24553399 0.5157682 0.20454717 -0.21755886 0.029455006
-0.10926113 0.3449036 0.31700027 -0.02857507 0.22586781 -0.019698538 -0.36157766 0.16418259
-0.045541253 0.29617417 -0.0069181137 0.10802268 0.16035752 -0.6167617 0.21858092 -0.14031161
0.5930703 -0.13803186 0.05505831 0.18477027 0.2524878 -0.03729028 -0.31581584 0.22604994
-0.0051080566 0.026106628 -0.59134275 -0.22326748 0.1170558 -0.16383667 -0.123645715 0.10626111
0.16293454 0.5611622 -0.01316635 -0.88168126 -0.2011246 0.51501197 -0.01317367 -0.00844336
0.32772815 0.5912486 0.3732419 0.28926226 0.041761916 0.15968785 -0.13164602 0.61148703
-0.35603008 0.045373287 0.18494642 -0.19015892 -0.59711546 0.15619089 -0.45619357 -0.2101838
-0.6857265 -0.57770854 -0.36246455 -0.4952725 0.20949586 -0.37749827 0.19225189 -0.036907185
0.38194266 -0.28130534 0.08750431 0.3338297 0.37211838 -0.08337926 0.071989626 0.23378196
0.4144155 0.06940718 -0.3440715 -0.025932368 -0.55414385 0.139929 -0.26222438 0.23862708
-0.25940242 -0.6011702 0.4956481 0.07231811 0.048144713 -0.2896206 0.14814977 0.5778509
-0.30867156 0.19756494 -0.114872895 -0.20689341 -0.20931774 -0.25552857 0.23367998 -0.026791863
0.20243151 -0.22970541 -0.16846305 -0.045105018 -0.15115133 -0.37472326 -0.09006811 -0.20296854
0.25970906 0.18549116 0.7192694 0.21460077 -0.23438358 -0.17887625 0.2157993 0.5219475
-0.40665606 0.11908274 -0.03593307 0.25946432 -0.1867984 -0.54672253 -0.3666183 -0.48411277
-0.30841148 0.5133975 -0.6740364 -0.84614444 0.1254807 0.7765579 0.69350934 -0.33376727
-0.18746051 0.25850248 -0.31893724 -0.40102464 0.19170617 -0.1946886 -0.06780966 0.096615195
-0.34444246 0.203076 -0.03438797 -0.3629197 0.46624944 -0.39913023 -0.31402865 -0.015500777
0.11289254 -0.41610765 0.35166118 0.012770491 0.68246704 0.19176607 -0.72660625 0.076793596
-0.801663 0.17649327 -0.10842753 -0.5151727 -0.38773975 -0.42565683 0.3409421 -0.23943031
-0.21824324 0.5309748 -0.9005662 -0.059585825 0.25558645 0.3878475 -0.503206 -0.0061125774
0.18574382 0.2205722 -0.09494661 0.04549381 0.14491667 0.23058932 -0.032575894 0.3534326
0.16416837 0.18183503 -0.22156917 -0.16231744 0.003652617 -0.024698574 -0.20407684 0.82013214
-0.60819155 -0.28012034 -0.089460745 -1.1109518 0.3681724 -0.19010024 -0.14730415 0.026299292
0.03911496 -0.04871241 0.32192713 0.2117948 0.59252423 -0.29564667 -0.6510221 0.22108418
-0.25648174 0.5302423 0.06825679 -0.09717263 -0.48639384 -0.72068113 -0.4610083 0.39224857
0.07066853 -0.53763014 0.5217401 -0.33922544 -0.8321142 0.06241505 -0.016521068 0.12705606
-0.5562953 0.47021744 0.06721925 -0.39218095 -0.09163056 -0.10376134 -0.118886955 -0.1905561
-0.53528947 -0.70131826 0.07654347 -0.15495147 -0.30422756 0.22385772 -0.25780252 0.04861422
0.31571504 -0.018757097 0.117027186 -0.042682424 0.10983728 -0.30225456 -0.16485919 -0.5838824
-0.24813056 -0.22720218 0.14567271 0.23925683 -0.18900883 -0.04910573 0.31051698 0.01869206

shared.2.bias f4 [128]
00000000: 45aa 7f3e 0f2a eebd ba57 c83e cf76 60be
00000010: f7b0 c2bd 2d10 ae3e 2e5e 84be 66d7 f53d
00000020: 8419 17bb bb8e 72be b14b 0f3e f472 81bd
00000030: 7116 64bd 145e 223e c841 813d 4df3 b2be
00000040: c5c3 153f 39d4 2fbe 687d 46be d4a3 5a3d
00000050: f151 3abe 8e72 f7be 5bd8 1fbe 8508 933e
00000060: a5ce 543d 2572 aabe c548 103e a100 adbc
00000070: 18f9 843e 2292 823e fa3d 79be 984a bfbd
00000080: 07c8 48be ab98 c0be f97c 043e 72dc 4e3e
00000090: 5173 3f3c 7289 84bd c98a 213e 251a 65bb
000000a0: 3cae b53d 1c3a 28be 361f 423d b23e 7a3e
000000b0: c561 ff3c f92e 3d3e f38b c03e 356a 423c
000000c0: c3c1 e23d 9aeb 46bd dd4f 83bc 5895 60be
000000d0: 9bf2 07bd 3c85 87be fb7c 0b3e d50b 96bd
000000e0: 6b54 663d 6659 3cbc 6736 08bf d7f1 fa3d
000000f0: 2e30 893e 17e1 9e3e 6101 e83d 0ac8 79bd
00000100: 8be9 5bbe 4440 e3bd 391a 5a3d fe42 343e
00000110: c350 25be 261d 4b3e ec76 5ebe 85e0 1b3e
00000120: 77bb 0fbe 07e1 3a3e a29a 333e 88b4 6d3c
00000130: fcf1 c4bc b84c 3a3e 3670 69be b410 a93d
00000140: f4b6 693e 8887 5abb 414c a53d c3d2 9cbe
00000150: d0c8 66be 7ca9 6ebe d729 843d 40c9 97be
00000160: dfbf 5ebd d774 ffbb b0cf 4abe 5332 59bd
00000170: 4067 d0bd 5b80 1e3d c70c 793e 05b7 103d
00000180: 7730 b5bd 8dcf 863d da1c 3c3e f01a adbe
00000190: 28d0 c43d c514 a6bd a4c4 4f3e 17f6 433e
000001a0: e5f7 55be b051 5e3d 5c37 20be cd2d dd3c
000001b0: 5fec 4b3d 2efe 053d dbdb 543e f5d1 36be
000001c0: 1169 6d3e ecbf e33d cdc5 913e 69db 08be
000001d0: a768 cb3b f495 fbbc 4d15 3e3e 2e2e 9c3d
000001e0: 3bc2 d4be eb28 0f3c 8d69 b83c d192 933d
000001f0: e70f d8bd e1ab 823e f58e 91bd c7a2 7bbc
0.24967296 -0.11629116 0.3912943 -0.21920322 -0.095064096 0.33996716 -0.25853103 0.120039746
-0.002305598 -0.2368726 0.13993718 -0.06320754 -0.055685464 0.158562 0.06311375 -0.3495125
0.58501846 -0.171708 -0.19383776 0.053378895 -0.1819532 -0.48329586 -0.15609877 0.28717437
0.051954884 -0.3329021 0.1409026 -0.021118464 0.25971293 0.25502115 -0.24340048 -0.093403995
-0.19607554 -0.37616476 0.12938298 0.2020128 0.011685208 -0.06471528 0.15775599 -0.003495821
0.08871123 -0.16428417 0.047393046 0.24437979 0.03117455 0.1847495 0.37606773 0.011866142
0.11072113 -0.04856453 -0.016029293 -0.2193197 -0.03319035 -0.26468837 0.13621895 -0.073264755
0.05623285 -0.011495924 -0.5320801 0.122531585 0.2679457 0.31031105 0.11328388 -0.060981788
-0.21475808 -0.11096242 0.053247664 0.1760368 -0.1614409 0.19835338 -0.21725053 0.15222366
-0.14036356 0.18249904 0.17539456 0.014508374 -0.024041168 0.18193328 -0.22796711 0.08255139
0.22823697 -0.0033344943 0.08071185 -0.30629548 -0.22537541 -0.2330684 0.06453293 -0.2964573
-0.0543822 -0.007795911 -0.19805789 -0.05302651 -0.101759434 0.038696628 0.2432128 0.03533079
-0.088471346 0.06582556 0.18370381 -0.33809614 0.09610015 -0.0810943 0.20289856 0.19136845
-0.20895346 0.054277122 -0.15646118 0.026999379 0.049785968 0.032713108 0.20786993 -0.1785353
0.23184611 0.111205906 0.28471223 -0.13364948 0.006207544 -0.030711152 0.18562813 0.076259956
-0.41554436 0.008737783 0.022511268 0.072057374 -0.10549908 0.25521758 -0.07107345 -0.015358633

actor.weight f4 [4, 128]
00000000: 1586 1e3e c9ca 38be 152e 143e f2c2 8a3e
00000010: eaff 64bc a335 c53d 5614 96bd 12ef 5fbe
00000020: 6a44 28be 88e6 473d e2fa 05be 520e 84bc
00000030: fa64 f33b 767f 113e 97dc 473d f228 9bbb
00000040: 94c4 9c3e 0b0d 8ebd 6049 c4bd 31df 14be
00000050: 29d8 ee3d ebfa cebd 43ed 123d 980c 223d
00000060: c7dc 11be 1ccd bf3d 796f f1bd 9958 953d
00000070: e1f2 c13d 062b 133e e49e cebd 35ef 803d
00000080: 8d42 eebd bf9a f7bc 0a76 21be 1946 083e
00000090: 2836 143e 9233 013d 1819 743e 8a27 05bb
000000a0: 6a28 383d 6704 e9bc 9f84 fe3d bed7 89bd
000000b0: 2b01 53be 4892 693d 40a9 ae3d 88a5 cd3e
000000c0: d3de 313e ddfa 0b3e 325c 523e e690 e6be
000000d0: 7f85 e93c 6b02 e33d 3b56 693d fcbf b73d
000000e0: 06d4 53be 2eed 92be a074 0cbe 2778 6a3d
000000f0: 350c aa3d f4d4 abbd 1c07 79be bee9 0cbe
00000100: ea40 0ebe 8654 b43d 16e5 31be 2942 f93d
00000110: 7bd1 c3bd 07e1 debd caba 6f3e 05fc 3a3e
00000120: e2a0 39bd 4012 2e3d 5657 503d 907c 053f
00000130: c4ff 04be 56c6 eebd b93e 74be 796c aebc
00000140: 6097 5c3e f190 8b3d a24d b7be 0425 c03d
00000150: 4454 cbbd 5663 41bd a488 863d 8477 92be
00000160: be98 95bd 1fc5 653e da5b 9c3c 268c 0e3d
00000170: 79bb 8a3d 71af 2fbd 381b c3bc e29b 8cbe
00000180: 5d63 353d 8dcd 153e d78a 1cbe 4f19 98bd
00000190: e154 013e 55d8 8c3b dd68 643d 25f2 e43d
000001a0: af1f 97bb b96b c2be f3f6 38be c34b 1ebe
000001b0: 5709 dfbd 246a 1cbd e5e1 16be 4bd2 003e
000001c0: fac4 b9bc 98d7 393e 2507 0abe 8568 80be
000001d0: 1a03 1b3c b955 233d 982a 923d 2a4c 173e
000001e0: 8e2c fbbd 8078 9ebd 6698 acbe 5904 61be
000001f0: 2221 4f3e 8421 14be bd5f 1a3c 34e8 0b3e
00000200: 2d55 ffbd cb73 bd3d ae4b 06be ae5c 64bd
00000210: 8c63 df3b fa8c 0b3e 02ff a73d d651 b5bd
00000220: f151 aa3e 90f3 c3bd 4ab5 12be 61ad 293d
00000230: 69e6 c53e c9b6 0bbd 9be7 3fbe 2226 8ebd
00000240: b71d 3f3c 836b 4bbe 030b fdbd a8ba 063e
00000250: 0151 18be 726a a5bd bb56 08bb 7001 bcbd
00000260: 8cf5 1a3e 3f6f 74be a5bb a63d 32d4 bc3a
00000270: b5f2 65be 50fe 503c 2985 f3bc 10c9 56be
00000280: 8621 41be 2c26 473c 1b92 66be e473 a73d
00000290: 8887 973e 7502 883d 009e 263c e9b0 783e
000002a0: 0c8c 02be 31c5 20bd 5860 debd 3003 f3be
000002b0: 5ecb 2b3e 10df abbc 20ad 753d 06c5 4dbd
000002c0: 83d4 643c e18d a53e 06e6 21be 6906 73be
000002d0: 9685 4a3e a7d4 1fbd 2492 e33c c15c 503e
000002e0: 4b16 583e cc42 4dbe fb80 0fbe a0a3 3b3d
000002f0: 92e2 2cbd dce3 a43c d447 78be f0d8 a33d
00000300: ce5d 44bd a393 4b3e 7b79 b93e a2f3 c13d
00000310: 34a8 51bc ffbf d03d c034 043e 4117 d33d
00000320: 9ff6 7dbe ba92 e6bd bcdb 0dbe 2463 49bb
00000330: 2701 8bbc 8c92 8dbd 2dba 16be 71e1 e23d
00000340: bb86 033e f546 c13d 841b 853d 032e 09be
00000350: 256c 70be a695 273e 9f40 a8be 45d8 583d
00000360: 309a debc 6345 26be 4abd d2bd 1038 1f3d
00000370: efb9 b5ba c86c 10bc 80b3 80be a165 2b3d
00000380: 8c19 3dbe 081d 5c3e ea30 323e 96ee 9abd
00000390: ac22 943d 9ec7 12be 19aa 3f3e cb66 b43c
000003a0: f999 dcbd e344 d23d 4e2d 32be 9f9f 3d3e
000003b0: c24a 9dbd c2de 2e3e fc15 91bd 5b47 3bbe
000003c0: a6db 393e 63ee d43d b3ae a23d e371 5abe
000003d0: dbd3 00be d79c 673c b9ba febd 8202 493d
000003e0: e659 4abb 16f6 2d3d 654e 9f3b 10b0 cb3d
000003f0: 4ade b4bd 8611 7139 92f5 1bbd 9200 3d3e
0.15480836 -0.18046106 0.14470704 0.27101856 -0.01397703 0.09629371 -0.073280975 -0.21868542
-0.16432348 0.048803836 -0.13083985 -0.01612011 0.007427809 0.14208779 0.048794355 -0.0047351057
0.30618727 -0.069360815 -0.09584308 -0.14538266 0.11662323 -0.101064526 0.0358708 0.03956279
-0.14244376 0.093652934 -0.1178884 0.07292289 0.094701536 0.14371881 -0.100889 0.06295625
-0.11633787 -0.030225156 -0.15767685 0.1330799 0.14473784 0.031543322 0.23837698 -0.0020317757
0.044960417 -0.028444482 0.12427639 -0.06730603 -0.20605914 0.05702427 0.085283756 0.40165353
0.17370157 0.13669915 0.20542982 -0.45032424 0.028506039 0.110844456 0.056967 0.08972165
-0.2068635 -0.2869658 -0.13716364 0.057243492 0.083031096 -0.08390227 -0.24319118 -0.1376104
-0.1389195 0.08805184 -0.17372546 0.12170822 -0.095614396 -0.10882764 0.23411098 0.182602
-0.045319445 0.042497873 0.05086454 0.5214319 -0.12988192 -0.11658923 -0.23852052 -0.021291958
0.2154212 0.06814755 -0.35801417 0.0938206 -0.09928182 -0.047213875 0.06569031 -0.28606808
-0.07304524 0.22438477 0.019086767 0.034801625 0.06774039 -0.042891923 -0.02381669 -0.2746268
0.044284213 0.14629193 -0.15287338 -0.07426702 0.12630035 0.0042982497 0.055764068 0.11178998
-0.0046119313 -0.3797281 -0.18062954 -0.15458588 -0.10890453 -0.03818716 -0.1473461 0.1258022
-0.022676934 0.18148649 -0.13479288 -0.25079742 0.009461189 0.039876673 0.0713703 0.14775148
-0.122643575 -0.07737827 -0.3371002 -0.21974315 0.20227483 -0.1446591 0.00942224 0.13662797
-0.12467418 0.092506014 -0.13114807 -0.05575245 0.006817287 0.13627997 0.08202936 -0.088534996
0.3326564 -0.0956794 -0.14326969 0.041425113 0.38652351 -0.034109864 -0.18740694 -0.06940867
0.011664799 -0.19865231 -0.12355616 0.13157141 -0.1487465 -0.080769435 -0.0020803649 -0.09179962
0.15132731 -0.23870562 0.08141259 0.0014406501 -0.22455867 0.012755945 -0.029726582 -0.20975137
-0.18860444 0.012155097 -0.22516672 0.08176401 0.2959559 0.06641094 0.010169506 0.24286236
-0.12748736 -0.039250556 -0.1085822 -0.4746337 0.16776797 -0.020980388 0.059979558 -0.050236724
0.013966682 0.32334808 -0.15810403 -0.23732914 0.19777521 -0.03902116 0.027779646 0.20347883
0.21102254 -0.20045012 -0.14014046 0.04581034 -0.04220826 0.020128183 -0.2424615 0.08000362
-0.04794102 0.19880538 0.36225495 0.094702974 -0.01279645 0.1019287 0.12910748 0.1030717
-0.2480111 -0.112584546 -0.13853353 -0.0030729258 -0.016968323 -0.06912717 -0.14719458 0.11078156
0.12844364 0.09437362 0.06499389 -0.13396458 -0.23478754 0.1636568 -0.32861802 0.052940626
-0.027173132 -0.16237406 -0.1029001 0.038871825 -0.0013864617 -0.008814998 -0.25136948 0.041844968
-0.18466777 0.2149545 0.17401472 -0.07565038 0.07233176 -0.1433396 0.18717231 0.022021672
-0.107715555 0.10267045 -0.17400095 0.18517922 -0.076802745 0.17077163 -0.07084271 -0.18288939
0.18150195 0.10397031 0.079434775 -0.21332507 -0.12580816 0.014136515 -0.12437958 0.049074657
-0.0030876338 0.042471014 0.0048616403 0.09945691 -0.08831461 0.00022990079 -0.03807599 0.18457249

actor.bias f4 [4]
00000000: d612 8fbc d5a6 31bd 35a4 de3d ac71 51bd
-0.017465036 -0.043371994 0.10871164 -0.051133797

critic.weight f4 [1, 128]
00000000: 851b 47bf 41f8 2a40 5c54 49bf c221 7a3f
00000010: 04bc 543f 8f96 9cbf 8dad a1bf eff3 14c0
00000020: 5ed9 0ec0 e812 633f 1b1d 6fbf 5d83 bdbf
00000030: b713 3740 63e8 89bf 434b 1bc0 1d02 5f3f
00000040: bff9 adbf 0121 1dc0 4ebb 7f3f a8b7 cb3f
00000050: f31e 0340 40b3 b73f effd c23f 214a 75bf
00000060: 4cdf 773f 524e 9d3f 41f6 8ebf 7616 16c0
00000070: 0aa4 fdbf 0f8c 55bf 1ee1 c53f 4789 12c0
00000080: c57f 5b3f a8e4 8a3f 4959 0740 cda6 c9bf
00000090: 885b 2f40 d671 0040 27a9 89bf 02fa 0bc0
000000a0: b03c 0e40 6fa2 4a3f d8a9 8bbf c5b0 08c0
000000b0: c8ed 00c0 d53d 3a40 ac72 d5bf 846a 2f40
000000c0: aa78 2cbf 37fa 8abf bc40 37c0 4643 be3f
000000d0: 83cb 5cbf 1d85 5c3f ff1d 36bf 13b6 0fc0
000000e0: 713a 2ec0 468e ddbf a11b 9f3f 6d87 9abf
000000f0: 7b3b 3cbf a394 6cbf 956c 16c0 7741 e3bf
00000100: 63fc 713f 789f f5bf 210e 0bc0 edf9 7abf
00000110: d550 14c0 f259 1640 8ca9 6a3f d579 1740
00000120: 647d fa3f c5d1 ed3f 2eca 2d40 f8ad 9abf
00000130: 1ea9 f1bf 4c81 93bf 4861 793f 0e57 2040
00000140: c0f2 3340 d50b 633f 8419 0ac0 6212 473f
00000150: cf39 38c0 91ee 14c0 e11b dabf 1037 7c3f
00000160: 03c2 25c0 dee6 f03f 414a 753f 6e37 ef3f
00000170: dd8a a6bf f98f 33c0 e794 2340 e16e fe3f
00000180: 59af a2bf a253 ebbf 77a4 42bf d436 643f
00000190: 83fb 0e40 527e dabf d706 1e40 d133 4340
000001a0: 5fc8 4c3f a03c 02c0 9227 ac3f 9123 36c0
000001b0: ccfb 40c0 589e 02c0 fd63 1540 54dd e23f
000001c0: c36c 80bf 7513 9dbf ce86 5dbf 6a4a 993f
000001d0: 641a 34c0 92c9 16c0 1db0 65bf 3e54 0140
000001e0: cb72 473f 31ab 2640 3723 9e3f 88f5 843f
000001f0: 015f 08c0 1ba7 4dbf 2f46 cbbf e55a 3040
-0.77776366 2.6714022 -0.7864435 0.9770776 0.8309939 -1.2233447 -1.2631088 -2.3273885
-2.232017 0.88700724 -0.93403786 -1.4805714 2.8605783 -1.0774044 -2.4264686 0.871126
-1.3591841 -2.4551394 0.9989518 1.5915422 2.048764 1.4351578 1.5233744 -0.95816237
0.968251 1.2289526 -1.1168901 -2.345121 -1.9815686 -0.8341684 1.5459325 -2.2896287
0.85741836 1.085103 2.1148245 -1.5754029 2.7399616 2.006948 -1.0754746 -2.1871343
2.222454 0.79154104 -1.0911207 -2.1357892 -2.014513 2.910024 -1.667562 2.7408762
-0.6737162 -1.085761 -2.863326 1.486428 -0.86248034 0.86140615 -0.7113952 -2.245488
-2.722317 -1.7309043 1.2430307 -1.2072579 -0.7352826 -0.924143 -2.3503773 -1.7754353
0.94525737 -1.9189291 -2.1727374 -0.98037606 -2.3174336 2.3492398 0.9166496 2.366811
1.9569516 1.8579642 2.715465 -1.2084341 -1.8879735 -1.1523833 0.97414064 2.5053134
2.8116913 0.8868993 -2.1578074 0.77762425 -2.8785284 -2.327061 -1.7039758 0.9852152
-2.5899665 1.8820455 0.9581643 1.8688791 -1.3011128 -2.8056624 2.5559633 1.9877588
-1.2709762 -1.8384898 -0.76032203 0.8914616 2.234101 -1.70698 2.4691675 3.0500376
0.7999324 -2.0349503 1.3449576 -2.8459208 -3.0153685 -2.0409145 2.3342278 1.7723794
-1.0033191 -1.2271563 -0.8653382 1.1975834 -2.8141108 -2.3560529 -0.8972185 2.0207667
0.77909535 2.6041987 1.2354497 1.038743 -2.1307986 -0.8033311 -1.5880793 2.7555478
