series/ai-ml/w1-understanding-ppo/scripts/demo/outputs/models/final_model.pth (torch, 76933 bytes, 7 tensors)

shared.0.weight f4 [128, 8]
000000 2c d7 61 bd 67 8a 50 3f 16 84 42 be 59 f8 5e be
       -0.055136845 0.81461185 -0.189957 -0.21774425
000010 90 2f 93 be d1 67 a5 bd 76 2d 7d bd d3 ad 0e 3e
       -0.28747225 -0.08076442 -0.061810933 0.13933496
000020 30 f2 4b 3f 59 bd 8d bf 03 aa 15 3f 9e 36 2c 3e
       0.79666424 -1.1073409 0.5846254 0.1681771
000030 61 86 ec 3e 67 9e 81 be 9d ec 0b 3e 88 2d 73 3e
       0.46196273 -0.25316164 0.1366448 0.23747838
000040 53 fb e5 be 63 a5 5e be 44 3f ac bc f2 73 37 bf
       -0.44918308 -0.21742778 -0.021026261 -0.71661294
000050 cc f7 66 3f 97 c2 c7 3e c1 ec 2b be 42 df 84 3d
       0.9022186 0.39015648 -0.16789533 0.064878955
000060 49 a0 4c be dd ed f0 3e 1d 04 0b bf 2b 58 c1 3d
       -0.19983019 0.47056475 -0.5430315 0.09440645
000070 a6 14 6c 3f 85 4f e0 3e 2c b6 40 be 72 bc 47 3d
       0.92219007 0.4381067 -0.18819493 0.0487637
000080 0f c2 68 3e c5 59 a1 3e 1e 39 99 3e 8d cf 38 3f
       0.22730277 0.315138 0.2992639 0.721917
000090 ac 04 11 bf c1 4e e4 be 49 6b 06 3e 8a f2 3c 3e
       -0.56647754 -0.44591334 0.13126864 0.18451896
0000a0 be 45 35 3f 20 8d 1b be 39 75 52 bd d8 25 b4 be
       0.70809543 -0.15190554 -0.051381323 -0.35185122
0000b0 96 f9 20 bf db 9f 52 bf e5 11 1d 3e 20 4f 42 3e
       -0.6288084 -0.8227517 0.15338857 0.18975496
0000c0 27 29 8f be 83 f6 6e bf 1d c6 55 be 02 57 2a bf
       -0.27961084 -0.933449 -0.20876355 -0.66539013
0000d0 14 a5 53 3e ed 7e e5 be 71 5d 66 3d 23 99 76 bc
       0.20668441 -0.448234 0.056241456 -0.015051159
0000e0 73 b8 f4 3e 12 40 a9 3f 9b b4 29 bf 7e cd 1b 3f
       0.47796974 1.3222678 -0.6629121 0.6086043
0000f0 3d b8 9c 3e 44 dc a9 be ee 20 2a be d6 32 a2 3d
       0.30609313 -0.33175862 -0.16614124 0.079198524
000100 f7 10 80 bf 52 27 39 bd 07 3c 42 be 89 81 c9 bc
       -1.0005177 -0.045203514 -0.18968211 -0.0245979
000110 07 5d f7 3e f1 4f d3 3e 93 8a 6d bd 7e dd 80 bd
       0.48313162 0.41271928 -0.057993483 -0.06292246
000120 8f d2 1d 3f 8a 91 95 be 9d d2 c9 3e ef 14 a2 be
       0.6164941 -0.292126 0.39418498 -0.31656596
000130 16 30 40 bf f6 8f bd be d7 4d 8f bd 94 02 a2 3d
       -0.75073373 -0.37023896 -0.06997269 0.07910648
000140 28 8a 5e 3f 1b 53 8e 3f 59 a4 5e 3e f3 e5 33 3f
       0.8692956 1.1119112 0.21742381 0.7027275
000150 4f 3a 7b 3d 45 56 49 3d c9 fc 33 be c9 e4 f1 3c
       0.061334904 0.04915454 -0.17576899 0.029528039
000160 1f f3 a2 be dc d0 48 3e ad a4 c7 be f4 51 38 3f
       -0.31826112 0.19610924 -0.38992825 0.7200005
000170 4a f2 a2 be ec 7d 73 3f 4b d5 aa 3e a0 2c 0d 3d
       -0.31825477 0.95114017 0.33365855 0.034466386
000180 9d 04 b7 3f f6 ce 58 bc 49 4c 7f 3c b5 95 50 3f
       1.4298283 -0.013232937 0.015582153 0.81478435
000190 e7 d2 28 3f 8b 9c 09 bf 51 c4 ef bb e3 d7 19 bd
       0.6594681 -0.5375449 -0.007317104 -0.0375594
0001a0 6a 9e 71 bf 01 98 56 be d5 06 84 bd 04 9e 6c bf
       -0.94382346 -0.20956422 -0.064466156 -0.9242861
0001b0 0e 41 d4 3e cf 50 cb bc 6a c7 65 be f6 fd 61 3d
       0.41455883 -0.024818806 -0.22439352 0.055173837
0001c0 f8 4f 91 3f a3 07 06 3f 8c d3 60 3e 63 33 aa 3e
       1.135253 0.523554 0.21955699 0.3324233
0001d0 e6 54 b6 be 4c d3 1c 3d d8 a0 5a 3d 00 c4 dc bd
       -0.35611647 0.038287446 0.05337605 -0.107795715
0001e0 3b 03 5b 3e 41 0d 41 3e 4f 8a bb be 98 8e cb 3e
       0.21387951 0.18852712 -0.3662896 0.39757228
0001f0 e0 3c b6 bd b9 8d 08 be db f5 6d be 44 d0 ea bc
       -0.0889833 -0.13335313 -0.23238318 -0.028663762
000200 77 5d af 3f 17 15 df 3e 46 b4 af be 0d 70 9b 3e
       1.3700398 0.43570778 -0.34317225 0.30358925
000210 aa 07 31 bc 64 1c 6a 3f 29 af 4c be 84 3d 01 3e
       -0.01080505 0.9144957 -0.19988693 0.12621123
000220 08 8f 27 3f b4 bd b9 3e a1 40 ed 3c 33 b1 b9 3e
       0.65452623 0.36277544 0.028961482 0.36268005
000230 27 04 27 bf 13 83 09 bf be f6 54 be db 2f 76 be
       -0.6524071 -0.5371563 -0.2079725 -0.24041693
000240 97 4e 18 bf 47 a5 dc be ea 98 3e bf b4 56 1f bf
       -0.5949492 -0.43094847 -0.7445208 -0.62241673
000250 e3 9a a3 bf 94 8a 15 3f 38 4f 72 3e 26 e6 b1 bd
       -1.2781643 0.5841458 0.23663032 -0.086864755
000260 16 dd 0e bd 31 be f6 bd e9 7e 02 3f ed 2e c6 3e
       -0.034878813 -0.12047995 0.509749 0.38707677
000270 c9 a4 c8 3d 6f 19 18 3f e4 cc 11 3e 1e f8 19 3e
       0.09797055 0.5941381 0.14238316 0.15036055
000280 5d 29 2d 3f 2c c0 a6 bc bb d6 af 3d ce 72 16 be
       0.6764124 -0.020355307 0.085858785 -0.14692232
000290 02 a3 25 be 15 de 67 bf d0 23 a8 be 3b c3 d8 bd
       -0.16175464 -0.90573245 -0.32839823 -0.10584112
0002a0 85 15 17 bf 20 27 03 3f 3f 6e 28 3d 10 49 47 be
       -0.5901721 0.51231575 0.041120764 -0.19461465
0002b0 42 c5 10 bd 0c b0 cd bd 71 4a bc be 5f 8a 3f be
       -0.03534437 -0.10043344 -0.36775544 -0.18705128
0002c0 8d 49 9b bf 57 ec 15 bd b9 fd 3b bd fc c4 16 3e
       -1.2131821 -0.036602344 -0.045896266 0.14723581
0002d0 74 f9 95 3e 92 84 85 3d 0c a7 9f 3d c1 8b ea 3c
       0.2929188 0.065194264 0.077955335 0.028631093
0002e0 04 6a 86 3f 33 20 5e bf 74 60 48 3f cb e5 c0 be
       1.0501103 -0.8676788 0.78272176 -0.37675318
0002f0 04 97 aa be fa 7f 21 3e 58 94 bc 3d 72 a4 d3 3d
       -0.3331834 0.15771475 0.09207982 0.103341
000300 4b f0 2c 3e 18 a0 75 be 66 09 c4 be f6 15 6f 3e
       0.1688854 -0.23986852 -0.3828842 0.23348221
000310 89 96 08 bd 1b 21 b9 3e 4d 4c e9 3d a4 b1 25 3e
       -0.033346687 0.3615807 0.11391506 0.16181046
000320 ac d0 a8 3f 24 dd 82 3f 43 e0 c3 3c 92 0e d1 3e
       1.3188682 1.0223737 0.023910647 0.4083143
000330 bc 92 6d 3d 82 d2 be 3d 70 13 4e bd 90 20 50 be
       0.058001265 0.09317495 -0.050311506 -0.20324922
000340 69 cb 84 bf 06 61 e4 be a2 ca db bd 27 13 9f be
       -1.0374576 -0.44605273 -0.107320085 -0.310693
000350 57 c5 61 3f d7 32 7d be 42 3f 6a 3e 31 20 4a be
       0.8819174 -0.24726425 0.22875693 -0.19738843
000360 72 00 2f 3f 39 0f 17 3e 62 42 2b 3f b6 e2 6e 3f
       0.68360054 0.147519 0.6689817 0.93314683
000370 5c a3 8e bd 5e 45 10 be cb ff 9b bc e4 ab 84 bd
       -0.06964752 -0.14088961 -0.01904287 -0.06478098
000380 60 0c 0b 3e 75 12 28 bf 73 9b e0 bd 68 25 22 be
       0.1357894 -0.65653163 -0.109671496 -0.15834582
000390 2d 54 67 3e d3 72 69 bd ba 40 8d bb 4d 93 e5 3d
       0.22590704 -0.05699427 -0.0043106945 0.11209736
0003a0 ef 15 92 be df b9 8a bf 02 86 9e be 33 ed a8 3d
       -0.2853236 -1.0837973 -0.30961615 0.08248367
0003b0 b3 b7 4a 3f 7e e0 08 3f da 8b bc 3d 89 04 35 3e
       0.7918655 0.5346755 0.09206362 0.17677511
0003c0 08 03 43 3f 31 74 ef 3e fa 7a 9e be 08 3a 0b be
       0.761765 0.46768335 -0.309532 -0.13596356
0003d0 1f 0e 0a bf 37 b4 59 3f fc 30 3f bd 07 f8 0d 3e
       -0.539278 0.8504061 -0.046677575 0.13864146
0003e0 1e d0 12 3f 57 3b a3 bd 0b 27 5b bf d9 7e 2b 3d
       0.5734881 -0.079703026 -0.8560645 0.04186902
0003f0 cc 9a 54 3f ab e5 4f be 3e 6d 37 3e 75 64 7b 3e
       0.830487 -0.20302455 0.17912766 0.2455004

shared.0.bias f4 [128]
000000 dd 7e e1 be 46 eb 02 be cd 1f 95 be aa a2 0f 3d
       -0.44042102 -0.12785062 -0.29125825 0.035067238
000010 5e 9c b6 bd eb 1c f1 3b 1b ad 8c be b7 7a c6 3e
       -0.089165434 0.0073581836 -0.2747582 0.387655
000020 37 30 c3 3e 0b aa da be c1 b3 d9 3e 7d 58 c9 3d
       0.38122723 -0.42707857 0.42519954 0.09831331
000030 1b ff 96 3e c1 17 8d be e6 ed 99 bb 37 28 2d 3f
       0.29491505 -0.27557185 -0.004697549 0.6763949
000040 a1 9a 9d bd 0e 7e 80 be 6a 3a dc bd 5f 09 ab 3c
       -0.07695509 -0.25096172 -0.10753329 0.020878492
000050 c3 e4 05 3e dc c6 bb be 6e 2d cf bd 83 4b eb be
       0.13075547 -0.36675155 -0.10116087 -0.45956048
000060 fc 6f 10 3f e8 b9 71 bd 31 87 09 3e a4 ad f4 3e
       0.56420875 -0.059015185 0.13430478 0.47788727
000070 91 9e 3c 3e 27 23 1f be 4c 42 87 be cf 3e fe 3e
       0.18419863 -0.15540753 -0.26417768 0.49657294
000080 3c 84 e8 bd 1e 23 04 bf 51 36 dc be 6e 9b 41 3d
       -0.11353347 -0.51616085 -0.4301019 0.04726737
000090 30 2c 9f 3e 3d 8e 0b 3e 23 d2 cb be b2 ea a7 3e
       0.310884 0.13628478 -0.3980876 0.32796246
0000a0 1f 89 3a bd b2 73 4d 3b e7 b4 32 3e 04 11 96 be
       -0.045540925 0.0031349477 0.17451821 -0.29309857
0000b0 9e e3 0a bf 78 e7 99 3d 7b 02 2d 3a 4f c7 08 3e
       -0.54253566 0.07514852 0.0006599796 0.1335728
0000c0 df 65 01 3f 8f 39 c3 3e e0 b6 15 3f f6 21 e1 3e
       0.5054607 0.3812985 0.5848217 0.43971223
0000d0 be ef e2 3e c3 40 fc bd fd 8e 25 bd 83 ba 7f 3e
       0.44323534 -0.1231704 -0.040419567 0.24973492
0000e0 a0 63 d3 be 5c b3 ab 3e cc 13 31 3e ee cc ef be
       -0.41286945 0.33535278 0.17292708 -0.46836036
0000f0 29 d3 68 bc f6 b9 9d be 24 7b f2 3e 68 97 27 be
       -0.014210501 -0.3080594 0.47359574 -0.1636635
000100 52 dd 31 be f3 88 48 be 31 a0 ce be 81 34 b8 3c
       -0.17369583 -0.19583492 -0.4035659 0.022485973
000110 17 3f 7e be a1 f2 0b bf 44 05 14 3f fb e4 d3 be
       -0.24828754 -0.546671 0.57820535 -0.41385636
000120 1a 07 14 3d e6 5a 71 be 57 21 9e be d3 10 11 bd
       0.036139585 -0.23569831 -0.3088481 -0.035416435
000130 64 e5 d1 3e 3e 87 51 be 14 61 90 3c 2b a2 b8 be
       0.40995324 -0.20461747 0.017624415 -0.36061224
000140 c6 cd ab bd fb 22 18 3e 19 5a ce bc 18 4d be be
       -0.083888575 0.14857094 -0.025189446 -0.37168193
000150 29 0e 01 be e5 0b a6 bc f6 15 8d be 59 fc 21 bf
       -0.12603058 -0.020269344 -0.27555817 -0.63275677
000160 3f 83 c6 be 2f 51 6c be 34 f6 7d 3e db a0 9e 3e
       -0.38772008 -0.23077844 0.2480095 0.30982098
000170 8a fe 0f 3e ba bc 15 be 3c e6 5e 3d e4 47 97 3e
       0.14061943 -0.14622775 0.054418787 0.29547036
000180 99 68 19 3e d7 de 91 bd c5 64 67 bd bf ec ab be
       0.14981307 -0.071225815 -0.056492586 -0.3357906
000190 d3 19 42 be be 9b 79 be 34 72 12 3f 42 d7 90 3e
       -0.18955164 -0.24375817 0.5720551 0.2828923
0001a0 c6 7a 99 3e bf 16 d3 3d a0 4f 12 bf 28 98 51 be
       0.2997648 0.10307073 -0.5715275 -0.20468199
0001b0 65 a1 91 bc 7e e5 8c bd f0 b3 aa be 25 94 ef be
       -0.017777154 -0.0687971 -0.33340406 -0.46792713
0001c0 95 42 73 be 9d 54 f3 3e bc 95 c1 3e ba 74 67 3e
       -0.23755868 0.47525492 0.3780955 0.22603121
0001d0 f4 70 08 bf 91 62 88 bb fe bf d0 be fd da d0 3d
       -0.5329735 -0.0041621407 -0.40771478 0.10198019
0001e0 ab 9f 24 be ca b0 93 be d3 1f c8 3e cf 0d 3f 3e
       -0.16076533 -0.28845817 0.3908678 0.18657611
0001f0 83 a0 42 3d 09 1a df be 00 f9 77 be 55 39 20 bf
       0.047516357 -0.4357455 -0.2421608 -0.6258748

shared.2.weight f4 [128, 128]
000000 1e ef 22 bf f8 2e 27 be 3e d4 c4 be 7d 90 05 be
       -0.63646114 -0.16326511 -0.38443178 -0.13043399
000010 87 a3 fa 3e 92 c2 84 3e 85 24 6f be 18 9d 12 3e
       0.48952886 0.25929695 -0.23353775 0.14317739
000020 0c d0 f6 bd 27 1b 9a 3e 4c f4 b6 3e 6a eb d2 bd
       -0.120514005 0.3009884 0.3573326 -0.10298808
000030 5d fb 8b 3e 43 76 86 3a 7e 21 aa be c8 cf 4d 3e
       0.27340212 0.0010258633 -0.33228678 0.20098794
000040 59 0a a4 bb 5e 37 ac 3e c1 7d 55 bd a9 bf 47 3c
       -0.0050061163 0.33635992 -0.05212188 0.012191691
000050 d7 42 81 3e 08 57 15 bf 7c c2 3b 3e 87 c2 5e be
       0.25246307 -0.58335924 0.18335909 -0.21753894
000060 00 c4 17 3f c2 35 21 bd 74 73 bf 3d ea bd 09 3e
       0.5928345 -0.039357908 0.09348193 0.13451353
000070 56 d1 61 3e b4 17 61 bd cb f0 9a be 2a d3 b2 3e
       0.22052512 -0.054954246 -0.30261835 0.3492673
000080 95 63 85 3c 3b 9d f9 bc 64 c2 17 bf cd 04 6b be
       0.016282836 -0.030470481 -0.5928099 -0.2295105
000090 a5 ea 06 3e 1d 50 1e be 73 79 09 be 9c 04 81 3d
       0.13175447 -0.15460248 -0.13425235 0.06299707
0000a0 1a 03 6e 3e 87 ce e0 3e 6c 9e 7a 3c 6d d0 64 bf
       0.2324337 0.43907568 0.01529656 -0.8938053
0000b0 0a c1 6c be 77 dc e7 3e 34 d5 01 bc e6 0e bf 3b
       -0.23120514 0.4528539 -0.007924367 0.0058306335
0000c0 bf 34 8e 3e 0a 68 37 3f c3 06 ec 3e e0 54 89 3e
       0.27774617 0.71643126 0.4609891 0.26822567
0000d0 40 b5 da 3c 02 5c 6f 3d f8 be af bd 92 49 25 3f
       0.026697755 0.058437355 -0.08581346 0.64565384
0000e0 6d b0 f0 be 73 0d 89 3d 4c 14 53 3e c9 c2 84 be
       -0.47009602 0.06692018 0.20613211 -0.2592986
0000f0 98 bf f4 be de 60 06 3e b3 80 f5 be 91 9a cb bd
       -0.47802424 0.1312289 -0.47949752 -0.099415906
000100 b9 8c 1a bf ea 96 15 bf 23 be ef be 62 24 e1 be
       -0.60370976 -0.584334 -0.4682475 -0.4397307
000110 94 fc 23 3e 76 c1 9d be aa c7 5a 3e d0 31 5a bd
       0.1601432 -0.3081166 0.21365228 -0.05327016
000120 ef be c7 3e e8 87 aa be a8 4b 10 3e c1 29 b3 3e
       0.39012858 -0.33306813 0.1409136 0.34992793
000130 79 d3 f2 3e 37 f1 88 bd c3 9f d3 3d 55 08 3d 3e
       0.47426966 -0.06686633 0.103332065 0.1846021
000140 01 dd 94 3e b7 2b 20 3c 2c 4c 89 be ff 43 ad bd
       0.29074863 0.009776047 -0.26815927 -0.08460235
000150 30 53 eb be f0 84 49 3e c9 2d 88 be 9a fb 4d 3e
       -0.45961905 0.19679618 -0.2659743 0.2011551
000160 94 5f ab be 30 59 17 bf df 3d 03 3f f3 13 91 3d
       -0.33471358 -0.59120464 0.5126628 0.07083883
000170 f1 b3 97 3d f5 1a b5 be 81 04 0b 3e 9a de 01 3f
       0.07407368 -0.3537213 0.13575937 0.5073029
000180 d7 6d 83 be 96 52 4f 3e 90 5a 08 be 3a a1 83 be
       -0.2566974 0.20246348 -0.13315797 -0.25708944
000190 90 6c 6f be d4 23 41 be 42 4c 8b 3e 28 a3 f3 bd
       -0.23381257 -0.18861324 0.27206618 -0.11896354
0001a0 8a 4b 84 3e d2 8f 4f be c3 8d 65 be ee 6d b4 bd
       0.25838882 -0.20269707 -0.22417359 -0.0881003
0001b0 14 26 13 be 9d b2 c6 be 54 09 c0 bd 31 be 96 be
       -0.14369994 -0.38808146 -0.09376779 -0.2944198
0001c0 01 0b 9c 3e fb 4c 61 3e 1f a8 44 3f f3 33 03 3e
       0.30477145 0.22002022 0.7681903 0.12812786
0001d0 a9 d1 9d be fd ae 58 be 92 eb 56 3e bf 30 d8 3e
       -0.3082402 -0.21160503 0.209883 0.4222469
0001e0 36 3b 97 be 12 58 85 3d 2f e5 79 bd f9 ff 99 3e
       -0.29537362 0.06510939 -0.061009582 0.30078104
0001f0 32 b4 d4 bd 61 86 08 bf 96 38 bf be 54 d9 06 bf
       -0.10385932 -0.53330046 -0.3734786 -0.52675366
000200 f9 f3 8b be 54 ca 0f 3f 8a a5 27 bf 49 e7 54 bf
       -0.27334574 0.56168103 -0.6548697 -0.83165413
000210 5e c4 33 3e 36 e6 40 3f 7f 16 3b 3f 60 2a b3 be
       0.17555377 0.75351274 0.730812 -0.34993267
000220 c3 c2 69 be 2f 0d 92 3e c3 b4 b3 be 89 52 d1 be
       -0.22828202 0.28525683 -0.35098848 -0.40883282
000230 69 cf 63 3e ca d0 3e be f4 fb 6e bd b3 2c 71 3d
       0.2224709 -0.18634334 -0.05834575 0.05888052
000240 25 27 a7 be 67 b8 6d 3e e1 d7 9e bd 3f 74 b8 be
       -0.32647052 0.23214875 -0.077560194 -0.3602619
000250 cc 3c e8 3e af e7 c2 be 94 f9 8d be 83 b0 8f 3b
       0.45358884 -0.38067386 -0.27729475 0.0043850555
000260 74 16 99 3d 0a 4e cb be 04 50 b1 3e d7 9f 4d bc
       0.07474986 -0.39707977 0.3463136 -0.012550316
000270 b9 15 27 3f dc 73 7a 3e 78 86 39 bf f2 d3 77 3d
       0.6526752 0.2445826 -0.7247081 0.06050486
000280 aa d4 3b bf 0d a9 4b 3e 16 f5 df bd 28 d4 11 bf
       -0.73371375 0.19888707 -0.10935418 -0.5696435
000290 36 2f e0 be 36 af d4 be 95 9d c2 3e 1a 14 9a be
       -0.4378602 -0.41539925 0.3801085 -0.3009346
0002a0 9a 7b 40 be d5 39 04 3f 57 31 6c bf c7 c8 9b bd
       -0.1879715 0.51650745 -0.92262787 -0.076066546
0002b0 39 0a 9a 3e 8f 49 c6 3e 3c 7e 15 bf b6 f5 7f bd
       0.30085924 0.38727996 -0.58395743 -0.062490188
0002c0 ea ab 29 3e 6d c3 49 3e 05 2e f8 bd 0c d7 23 bc
       0.16569486 0.19703455 -0.121181525 -0.010000002
0002d0 fc af 07 3e be dd 73 3e 20 aa fa 3c ef 06 ab 3e
       0.13250726 0.23815057 0.0305987 0.33403727
0002e0 be a5 34 3e 37 b7 12 3e a2 93 94 be ed 8e 0b be
       0.1764135 0.14327703 -0.29018885 -0.1362874
0002f0 7f 60 5c 3d 79 f0 49 3c 56 c1 77 be 10 e4 5e 3f
       0.053802963 0.0123254 -0.24194846 0.87066746
000300 d0 cb 17 bf c8 cc 86 be 08 dd ac bd a6 df 8d bf
       -0.5929537 -0.2632811 -0.08440596 -1.1083877
000310 87 2e b1 3e d8 8d 13 be 8c 67 3a be 46 b7 88 3d
       0.3460581 -0.14409578 -0.18203562 0.06675582
000320 84 02 69 3c 79 64 cb bc d0 52 a8 3e 7a bd 4c 3e
       0.014221791 -0.024828183 0.3287568 0.19994155
000330 6f 0a 11 3f 8e ab 8f be 07 87 1b bf 17 a0 6a 3e
       0.56656545 -0.28060573 -0.6075291 0.22912632
000340 4b e7 92 be 54 6a 04 3f b2 35 ab 3d 4d 68 89 bd
       -0.28692088 0.51724744 0.08359851 -0.06709347
000350 a3 42 e1 be 56 b0 2e bf e6 08 e3 be 9c 98 da 3e
       -0.43996152 -0.6823782 -0.44342726 0.42694557
000360 23 70 ae 3d 76 14 fc be 9a 4e 00 3f 69 0e c3 be
       0.08517482 -0.4923436 0.50119936 -0.38096932
000370 bd a0 63 bf a9 71 71 3d 1b da 9f 3c 77 74 cc 3d
       -0.8891714 0.058946285 0.01951318 0.099831514
000380 36 94 16 bf 0d 7a 0a 3f 6d c4 2e 3d 52 e1 b4 be
       -0.588199 0.54092485 0.042667795 -0.35328156
000390 de 7b bf bd cf a8 4a bd 75 3f 0e be 42 36 61 be
       -0.09349798 -0.049477395 -0.13891394 -0.21993354
0003a0 30 34 02 bf fb 91 3e bf f8 34 cd 3d 2a c1 e1 bd
       -0.5086088 -0.744415 0.100198686 -0.11023171
0003b0 70 28 99 be 27 1b 79 3e 6f a0 75 be 15 78 89 3d
       -0.29913664 0.24326764 -0.23986982 0.06712357
0003c0 f2 14 b6 3e 56 0a 0d bd ca 24 d3 3d 95 21 b2 bd
       0.35562855 -0.034433685 0.10309751 -0.086978115
0003d0 df a0 f9 3d 72 72 b8 be 3c e4 0e be ef 2b 15 bf
       0.12188887 -0.36024815 -0.13954252 -0.5827016
0003e0 ba 1a 6b be 36 0d 59 be e2 8d e2 3d 9a 26 64 3e
       -0.22959414 -0.21196446 0.11062218 0.2228035
0003f0 53 2a 3d be 87 5a 5b bc 9d 51 a0 3e 68 95 56 3d
       -0.18473177 -0.013388283 0.31312266 0.05238858

shared.2.bias f4 [128]
000000 6e 36 83 3e fb 11 26 be 1e 59 ce 3e c0 f2 3e be
       0.25627464 -0.16217797 0.40302366 -0.1864729
000010 46 38 f2 bd 41 e8 a4 3e 9a 23 8a be 1f 91 a3 3d
       -0.118271396 0.32208446 -0.26980287 0.07986664
000020 f1 05 f2 3a 27 3c 3c be 7f 4e 28 3e da 03 33 bc
       0.0018464905 -0.18382321 0.16436194 -0.010926211
000030 9d 5e 69 bd 2c 6d 10 3e 47 7c b6 3d be e5 b9 be
       -0.056974996 0.14104146 0.08910423 -0.36308092
000040 73 94 11 3f af 83 3c be 0f c4 5b be 1a 56 52 3a
       0.5686714 -0.18409608 -0.21461509 0.00080236944
000050 4b 9b 75 be 3f 5d 02 bf 46 aa 11 be 40 01 92 3e
       -0.23985021 -0.5092353 -0.1422511 0.2851658
000060 9d a2 0e 3d 56 3a a2 be a2 eb 5f 3e 0f 0d 61 bd
       0.03482305 -0.31685132 0.2186723 -0.054944094
000070 7d 07 7e 3e b7 de 58 3e d0 47 91 be c2 ab 00 bc
       0.24807544 0.21178709 -0.283751 -0.00785345
000080 45 59 17 be 6e 5b df be 71 15 01 3e 08 0f 12 3e
       -0.14780147 -0.43624443 0.12605835 0.14263546
000090 c2 fe 15 3d 5d 95 12 bd ef 97 40 3e 60 76 97 3c
       0.03661991 -0.035786975 0.18807958 0.018489063
0000a0 27 74 2c 3d f5 05 52 be 7c e0 97 3d 8d 2f 90 3e
       0.04210296 -0.20510085 0.07415864 0.28161278
0000b0 a4 70 06 3d 74 c4 0d 3e 49 47 ba 3e 33 65 12 3d
       0.032822266 0.13844472 0.3638251 0.035741042
0000c0 ee fa 3f 3e 3c 1a a4 bc 4f 40 20 bd 6e 48 74 be
       0.18748066 -0.02003204 -0.03912383 -0.23855755
0000d0 bf 35 3c bd c1 2e 74 be c4 15 e7 3d 11 8f 3a bd
       -0.045949694 -0.2384596 0.11283448 -0.045546595
0000e0 85 b2 96 ba e9 c3 a7 3b 01 66 01 bf f0 73 05 3e
       -0.0011497295 0.00511979 -0.5054627 0.13032508
0000f0 3f 56 59 3e ce 93 99 3e 01 ed 32 3e 42 03 94 bd
       0.21224307 0.2999558 0.17473222 -0.07227184
000100 c0 57 51 be 2f 15 5b bd 0c 0f 54 bc 9f 5c 59 3e
       -0.2044363 -0.053487 -0.012943041 0.21226738
000110 29 6b 0a be 51 46 0f 3e 1b fb 4e be f1 37 df 3d
       -0.13517441 0.13991667 -0.20212977 0.10899342
000120 b6 9b c7 bd 28 1a 5a 3e b5 1a d3 3d 49 f1 31 3d
       -0.097464964 0.2129904 0.10307828 0.043442998
000130 6f 36 83 bc dd 3f e3 3d 65 88 66 be 60 70 77 3d
       -0.016017167 0.11096165 -0.22512968 0.060409904
000140 20 16 72 3e 1e ee 80 3b 90 8d c0 3d d2 52 ae be
       0.23641253 0.003934636 0.09402001 -0.34047562
000150 da 56 35 be c5 0f 5d be ef 8b 83 3d 61 de 81 be
       -0.17708912 -0.21588047 0.064231746 -0.25364974
000160 65 b2 93 bd 52 f5 87 bc 31 84 15 be f5 4a f9 bd
       -0.072117604 -0.01659647 -0.14601208 -0.121725
000170 9f 67 a8 bd 86 79 a0 3d b1 3c 42 3e 55 39 38 3c
       -0.08222889 0.07835679 0.18968464 0.011244138
000180 40 ce 7b bd 92 ca 8b 3d 78 98 23 3e d1 56 ad be
       -0.061475992 0.068257466 0.15976131 -0.33855298
000190 79 01 16 3d 55 6c 08 3c ea e9 4b 3e 90 10 1d 3e
       0.0366225 0.00832661 0.1991345 0.1533835
0001a0 3e 1e 7a be fc 04 fc 3d d1 d0 5b be 97 9b b1 3d
       -0.24425599 0.12305638 -0.21466376 0.086722545
0001b0 1a 27 67 3d 04 a1 b1 3c fd 86 3c 3e ac c9 6d be
       0.056433775 0.021683224 0.18410869 -0.23221463
0001c0 45 f2 4c 3e b8 d4 d1 3d 5d ec 88 3e 38 a3 3a be
       0.20014293 0.10245651 0.2674283 -0.18226326
0001d0 0a f6 c9 3c 5f 17 2b 3d e8 b8 29 3e bf c2 5b 3c
       0.024653453 0.041770335 0.16574442 0.01341313
0001e0 10 b9 d8 be 37 4c 44 3c 55 aa 13 3d 56 b9 c5 3c
       -0.4232869 0.011981062 0.036051113 0.024136227
0001f0 b8 7a c8 bd b0 87 3c 3e e5 5f f8 bc 5a d5 97 bc
       -0.09789032 0.18411136 -0.030319164 -0.018534351

actor.weight f4 [4, 128]
000000 c6 f5 1d 3e de 69 2b be 46 8e 0a 3e 2e 28 87 3e
       0.15425786 -0.16739604 0.13530836 0.26397842
000010 3b dc a3 ba 99 73 bb 3d 91 8e 84 bd 6b c0 65 be
       -0.0012501547 0.09152908 -0.06472505 -0.22436683
000020 9c b0 2e be 5d 59 4d 3d 49 17 0a be 84 77 e4 bc
       -0.17059559 0.05013405 -0.13485445 -0.02788902
000030 ef d1 04 bb f8 a7 15 3e ea 54 41 3d 34 6e 6c 3a
       -0.0020266732 0.14614856 0.04720012 0.0009019107
000040 4f 48 99 3e c1 7c a3 bd 74 13 b9 bd cb 29 0a be
       0.2993798 -0.07982779 -0.090369135 -0.13492505
000050 25 13 d0 3d 54 8f d7 bd b7 f6 89 3c 81 67 0a 3d
       0.101599015 -0.105253845 0.016841276 0.033790115
000060 54 29 f8 bd bd c2 cc 3d db db ca bd 7b 9c ab 3d
       -0.12117258 0.09998081 -0.09905215 0.08379456
000070 ef 4b bf 3d fc a6 1a 3e 95 6f 06 be a9 a8 7b 3d
       0.09340655 0.15102762 -0.13128503 0.061440144
000080 04 2e 03 be 7f ab d9 bc 53 2f 22 be a0 c0 13 3e
       -0.12810522 -0.026571034 -0.15838365 0.1442895
000090 ed 32 0e 3e 51 3b 5f 3d b7 d4 70 3e f6 ec 5f bc
       0.13886614 0.054499928 0.23518644 -0.013667336
0000a0 a9 7c 1c 3d 1e ac 06 bd d6 d7 d1 3d 37 68 86 bd
       0.038204823 -0.032878987 0.102462456 -0.06562846
0000b0 96 e5 70 be 53 6c 40 3d 26 e7 a1 3d e1 20 ca 3e
       -0.2352508 0.046978306 0.07905416 0.3947821
0000c0 8b 93 30 3e 85 1a f1 3d e3 44 5a 3e 35 a2 e7 be
       0.17243783 0.11772636 0.2131534 -0.45240942
0000d0 e3 fa 5d 3c d7 52 f7 3d e8 fb 7a 3d 7c 4f ae 3d
       0.013548586 0.12076347 0.061275393 0.08511254
0000e0 3e b8 4e be 08 d2 9d be 25 4a 05 be c3 55 43 3d
       -0.2018747 -0.30824304 -0.13016565 0.04768921
0000f0 3a 71 b2 3d c8 5c b7 bd f7 92 6b be d1 c9 04 be
       0.087130025 -0.089532435 -0.23005281 -0.12967612
000100 b7 2c 11 be 4e b1 93 3d bc 73 31 be bc 4a e5 3d
       -0.14177214 0.072115526 -0.17329305 0.11195895
000110 35 81 b7 bd 03 2a f3 bd f3 3f 67 3e c2 61 2e 3e
       -0.08960191 -0.118732475 0.22582988 0.17029479
000120 e9 fa 61 bd 67 a1 f8 3c d6 aa 24 3d 30 f0 00 3f
       -0.055170927 0.0303504 0.040201984 0.503665
000130 fa 28 fe bd 76 bf d8 bd 50 e5 71 be bf 7d 05 bd
       -0.124101594 -0.10583393 -0.23622632 -0.032590624
000140 d1 3a 54 3e f4 a0 7f 3d 0a 9b c2 be 21 90 d2 3d
       0.20725562 0.062409356 -0.3800891 0.10281397
000150 63 9f cd bd fe a7 25 bd 22 c5 a9 3d 6f 90 94 be
       -0.10040166 -0.040443413 0.08289553 -0.29016444
000160 5f 6a 80 bd 5f 09 80 3e 24 b6 0b 3c 48 b7 30 3d
       -0.06270289 0.2500715 0.008527312 0.04314354
000170 ce 63 97 3d d7 19 46 bd 5e 35 0a bd fe a8 89 be
       0.07392083 -0.048364487 -0.0337423 -0.26886743
000180 a3 de 55 3d c8 ef 0e 3e 13 8a 12 be 1a e4 84 bd
       0.052214276 0.13958657 -0.14310484 -0.064888194
000190 ab 7e e9 3d f7 34 b4 3a f6 bf 3b 3d f7 0c e2 3d
       0.11401113 0.0013748695 0.045837365 0.11037629
0001a0 0c 2c 76 bb b9 69 c6 be 4d 39 3b be 74 21 16 be
       -0.0037562875 -0.38752535 -0.18283577 -0.14661199
0001b0 cd 30 d8 bd 46 7c 72 bd be 95 19 be 13 3c e1 3d
       -0.10556183 -0.059200548 -0.14998528 0.109977864
0001c0 b7 af 00 bd c1 9c 2c 3e 24 82 0a be 26 93 88 be
       -0.031417575 0.16856672 -0.13526207 -0.26674765
0001d0 01 8d 98 3a 89 b0 08 3d 76 4a 87 3d 8b db 33 3e
       0.0011638702 0.033371482 0.06605999 0.17564218
0001e0 62 15 ee bd da 3b a1 bd 45 09 af be 1d 36 45 be
       -0.11625172 -0.07872744 -0.3418676 -0.19258924
0001f0 21 b6 51 3e 1e 00 0e be ed 2d 57 3c e7 a5 fe 3d
       0.20479633 -0.13867232 0.013133508 0.12433987
000200 1d 7c fd bd e6 ae ae 3d b5 a0 fb bd a7 2e 46 bd
       -0.12377188 0.08529453 -0.12286512 -0.048384335
000210 85 b7 2a b9 e6 ae 0e 3e c6 f5 99 3d 46 47 ac bd
       -0.0001628083 0.13933906 0.07517581 -0.08412032
000220 2a 8d a8 3e b5 1e ca bd 8b f4 0e be 60 0d 01 3d
       0.329202 -0.09869138 -0.13960473 0.031506896
000230 91 82 c6 3e 93 f9 1b bd 0a 67 46 be f2 70 8b bd
       0.3877149 -0.03807981 -0.19375244 -0.06808652
000240 6c ac 8d 3c c0 36 54 be e6 6f 04 be db a9 0e 3e
       0.017294131 -0.2072401 -0.12933311 0.13931982
000250 b7 94 1e be bc bb a0 bd bb eb 3b 3c fe c3 bb bd
       -0.15486418 -0.078483075 0.011469777 -0.09168242
000260 36 7e 16 3e b0 4f 75 be eb 24 91 3d c0 33 d0 bb
       0.14696583 -0.2395618 0.0708712 -0.0063538253
000270 8f 21 61 be ac df b5 3b 44 8a e1 bc 42 9c 60 be
       -0.21985458 0.0055503454 -0.02753175 -0.21934608
000280 2d ab 38 be a5 a7 2f 3c fe 86 55 be 69 94 99 3d
       -0.18034048 0.010721122 -0.20852277 0.0749901
000290 f8 5c 97 3e 1a f8 6d 3d bd 14 7f 3b 5a 68 79 3e
       0.29563117 0.058097936 0.0038922273 0.24356213
0002a0 41 80 e3 bd 30 e2 1c bd 21 f3 d7 bd 8c 51 ee be
       -0.11108447 -0.038301647 -0.1054442 -0.4654659
0002b0 67 ec 35 3e bf 24 24 bc 81 9d 82 3d d6 22 1c bd
       0.17765962 -0.010018527 0.06377698 -0.03811916
0002c0 a1 83 86 3c 17 73 a8 3e e7 6f 23 be fd 3d 76 be
       0.016420187 0.32900307 -0.15960656 -0.24047084
0002d0 d9 ed 42 3e ef 90 3c bd 1e fb a4 3c 47 df 4e 3e
       0.19036044 -0.046036657 0.020139273 0.20202361
0002e0 2b 20 4e 3e 17 e9 44 be d2 73 16 be a9 19 4f 3d
       0.20129459 -0.19229542 -0.1469262 0.05056158
0002f0 01 04 49 bd 72 dc a4 3c 28 26 78 be 7a 43 91 3d
       -0.049076084 0.020124648 -0.24233305 0.07092948
000300 5d fd 33 bd bb 4f 47 3e dc 21 b9 3e fe 19 d2 3d
       -0.043942798 0.19464009 0.36158645 0.10258864
000310 90 af cd bc 23 70 dc 3d 09 38 0d 3e 48 f6 f1 3d
       -0.025108129 0.10763576 0.13790907 0.118145525
000320 61 9b 78 be fc b9 d1 bd 43 48 03 be 1c 38 2a ba
       -0.24278022 -0.10240552 -0.12820534 -0.00064933463
000330 e8 06 eb bc 27 14 a4 bd c9 7a 13 be 36 25 f4 3d
       -0.028689817 -0.08011656 -0.14402308 0.1192116
000340 03 07 0c 3e 13 28 de 3d f2 e0 93 3d 03 a6 11 be
       0.1367455 0.10847487 0.07220639 -0.14223485
000350 93 2d 71 be 4b 6c 18 3e d7 55 ab be c1 3c 71 3d
       -0.23552541 0.1488506 -0.33463928 0.05889583
000360 4f f3 02 bd 31 f9 32 be a8 3c bf bd 39 0b 3b 3d
       -0.03197032 -0.17477871 -0.09337741 0.045665
000370 3f 9a 55 bc 35 bb 17 bc cd 51 7c be c2 d4 3c 3d
       -0.013037263 -0.009260942 -0.2464058 0.04610134
000380 86 b6 49 be be a7 66 3e ae 09 29 3e 33 15 ac bd
       -0.19698533 0.22524926 0.16507599 -0.08402481
000390 8a a8 a9 3d 91 2d 1b be 10 7b 4a 3e 50 1e f9 3c
       0.082840994 -0.15154101 0.19773507 0.030409962
0003a0 63 f9 d5 bd 2b 4c d9 3d b4 8d 26 be 5d 01 2f 3e
       -0.10447957 0.10610231 -0.16264993 0.17090364
0003b0 34 6f ab bd 3f b9 34 3e 20 b0 6d bd dc ac 3a be
       -0.0837082 0.17648791 -0.058029294 -0.18230003
0003c0 7e c4 3f 3e 4a 88 dc 3d 56 7b a9 3d 85 a4 57 be
       0.187273 0.107681826 0.082754776 -0.21058853
0003d0 76 ba f4 bd a2 cc aa 3b 43 34 fb bd 5f fa 2c 3d
       -0.11949627 0.0052123824 -0.122658275 0.04223096
0003e0 e1 55 da bb cb 7c 39 3d 14 a0 9c 3b f1 38 cc 3d
       -0.0066630696 0.045285027 0.004779825 0.09971798
0003f0 6d 30 c2 bd 92 53 d2 bb 1a d9 3f bd b8 8f 46 3e
       -0.09481893 -0.0064186538 -0.046837904 0.19390762

actor.bias f4 [4]
000000 8f 6d d7 bc 08 02 0f bd 23 ce ea 3d ef 86 6e bd
       -0.026297359 -0.034914047 0.11465099 -0.05823415

critic.weight f4 [1, 128]
000000 3b be 50 bf 88 5c 2d 40 81 b7 55 bf 6a fd 82 3f
       -0.8154027 2.7087727 -0.8348313 1.0233586
000010 39 6d 5f 3f a8 f3 a1 bf c1 4a a2 bf b7 a3 1a c0
       0.87276036 -1.2652483 -1.2679063 -2.4162424
000020 0b 0d 10 c0 c7 09 70 3f 93 11 79 bf 20 e0 c5 bf
       -2.250796 0.9376492 -0.9729244 -1.5459023
000030 06 b8 37 40 96 7a 92 bf 5b aa 20 c0 e4 8d 6a 3f
       2.870607 -1.144366 -2.5103977 0.9162276
000040 5d c2 b2 bf 73 8a 1f c0 08 0a 84 3f 5e 09 cd 3f
       -1.3965565 -2.4928253 1.0315561 1.6018484
000050 2d 42 02 40 da e0 bf 3f 03 4c be 3f 43 72 80 bf
       2.035289 1.4990494 1.4866947 -1.003487
000060 fe ba 83 3f e7 60 a2 3f 81 37 8f bf 50 c5 15 c0
       1.029144 1.2685822 -1.1188813 -2.340168
000070 49 47 03 c0 19 16 60 bf 4c c6 c5 3f 26 08 15 c0
       -2.051226 -0.8753372 1.545114 -2.3286223
000080 b6 c2 67 3f 69 56 8f 3f 98 5b 05 40 b6 a6 d0 bf
       0.9053148 1.1198245 2.0837154 -1.6300876
000090 1b 60 30 40 2e b5 05 40 e9 f5 8d bf 9b 0c 0d c0
       2.7558658 2.0891833 -1.1090671 -2.2038944
0000a0 ea a3 0f 40 0d a1 55 3f d4 fe 92 bf 21 1b 0c c0
       2.2443795 0.8344887 -1.1484017 -2.1891558
0000b0 a0 b7 00 c0 46 e2 3b 40 e0 2c da bf b7 7a 2f 40
       -2.0112076 2.9356856 -1.7044945 2.741865
0000c0 07 3e 39 bf 55 09 90 bf 9e c2 39 c0 5a c5 c3 3f
       -0.7236027 -1.1252848 -2.9025035 1.5294602
0000d0 cb 06 57 bf fe f8 67 3f 55 1d 41 bf da 64 12 c0
       -0.8399474 0.90614307 -0.7543538 -2.2874055
0000e0 64 4c 2d c0 ec c8 dd bf 47 46 a3 3f 52 05 a3 bf
       -2.7077875 -1.7326941 1.2755822 -1.2735999
0000f0 fd 9f 4a bf 50 67 78 bf 88 b4 15 c0 1e 84 e3 bf
       -0.7915037 -0.9703264 -2.3391438 -1.7774694
000100 29 08 7e 3f 06 a6 f6 bf 10 80 0a c0 41 27 83 bf
       0.992312 -1.9269416 -2.1640663 -1.0246354
000110 c9 6e 14 c0 a4 01 18 40 f7 86 70 3f 82 3e 1a 40
       -2.3192618 2.3751001 0.9395594 2.4100652
000120 d9 c0 f1 3f 00 c4 ea 3f a3 6d 30 40 36 76 99 bf
       1.8886977 1.8341064 2.7566917 -1.19892
000130 11 f3 f3 bf 3c 83 9a bf 18 63 80 3f f0 c3 20 40
       -1.9058553 -1.20713 1.0030241 2.511959
000140 f7 72 35 40 0d 7e 66 3f cb 10 0e c0 37 d3 52 3f
       2.835142 0.9003609 -2.219775 0.8235354
000150 9f d1 39 c0 cb 93 13 c0 23 b7 d9 bf e8 b1 85 3f
       -2.9034193 -2.3058956 -1.7009014 1.0444918
000160 55 2f 28 c0 ff ab f9 3f 00 bb 7d 3f 58 6d f5 3f
       -2.627889 1.9505614 0.99113464 1.9173994
000170 83 8c a6 bf 71 a6 32 c0 aa 80 25 40 d6 6e 01 40
       -1.3011631 -2.7914088 2.585978 2.02239
000180 88 9f a2 bf 16 30 ea bf 22 6a 4f bf e3 68 70 3f
       -1.2704935 -1.8295925 -0.8102132 0.93910044
000190 7f 25 12 40 87 e8 db bf ae bd 1e 40 67 93 46 40
       2.2835386 -1.7180337 2.4803271 3.1027467
0001a0 2d 53 51 3f 2b cf 00 c0 be 4c af 3f e2 e8 38 c0
       0.8176754 -2.0126445 1.3695295 -2.889214
0001b0 95 55 3f c0 ac 61 04 c0 a2 7b 18 40 a4 f1 de 3f
       -2.9895985 -2.0684614 2.382546 1.7417493
0001c0 ef ce 86 bf c7 1f a1 bf 09 29 6d bf 3f aa 9b 3f
       -1.0531901 -1.2587823 -0.9264074 1.216133
0001d0 c5 55 37 c0 15 02 17 c0 8a db 6e bf 83 1b 04 40
       -2.86461 -2.359502 -0.9330374 2.0641792
0001e0 9b 5b 50 3f 1f 0d 27 40 8d d2 99 3f b5 24 89 3f
       0.8138978 2.6101758 1.201738 1.0714327
0001f0 2f 5d 07 c0 e3 a7 5a bf ca ec cf bf dd 80 32 40
       -2.1150625 -0.85412425 -1.6244137 2.7891152
